lenet.onnx (onnx, 486313 bytes, 10 tensors)

conv1.weight f4 [16, 3, 5, 5]
0.13394463 0.44825646 0.41270393 0.31973466 0.19288254 0.02288852 0.034266844 0.04341019
-0.034970373 0.06326694 -0.04879327 -0.32874197 -0.40401313 -0.13937409 -0.10972411 -0.030172594
-0.24088675 -0.049075406 -0.16473034 -0.18626979 -0.2186878 -0.19796683 -0.14590757 -1.925975e-05
-0.08564759 0.05067754 0.13345553 0.25162515 -0.032752126 -0.12359236 0.1741505 0.051420502
0.13407525 -0.10971992 -0.010703239 0.05849488 -0.053905647 0.053297747 0.1273961 0.046337765
-0.065497294 0.104701355 -0.044810764 0.07829328 0.06514668 -0.006939445 -0.08414341 -0.14107627
0.02886185 -0.06497405 -0.01315073 0.16414072 0.27420142 0.099598415 -0.052289438 0.10189781
0.008707858 0.080212645 0.02504776 0.117107406 -0.12701464 0.052413728 0.06734459 0.15034541
0.25633934 -0.034300514 -0.09197982 0.010739867 0.13193542 0.2395501 -0.008335757 -0.1509229
-0.1987934 0.027541328 -0.004821265 -0.15281434 0.40160123 -0.17508118 -0.16540067 -0.06098892
-0.41754535 0.46961308 0.6815227 0.7737365 0.35696745 -0.44027296 -0.53613883 -0.70521754
-0.20009507 0.12744974 0.13174476 -0.08623678 -0.24896528 -0.41447118 -0.09135678 0.07109707
-0.0112683 0.13319893 -0.17309415 -0.1512534 0.0028820115 0.49735284 -0.40309578 -0.3645375
-0.2649908 -0.08517441 0.7037113 0.45892468 0.5612361 0.2750658 -0.26531768 -0.21804133
-0.5586412 -0.28611305 -0.062436093 0.20681068 0.23075657 -0.089341916 -0.02719567 0.046863813
0.077444434 0.23680264 0.41694552 0.15107241 0.2447569 -0.21981251 0.22992685 -0.30296594
-0.2816613 -0.111269236 -0.1798253 0.29391146 0.24627218 0.5321706 0.16676414 -0.27687895
-0.4112976 -0.5220508 -0.19953707 -0.20958054 0.40031606 0.15219885 0.059161182 -0.20763111
-0.017063506 -0.027644625 0.019934028 0.22699672 0.034603912 -0.07382441 -0.03225254 0.11723915
0.18248035 0.22258146 0.09972859 0.05112594 0.20048198 0.29910833 0.44673237 0.28915498
0.15659352 -0.123603545 -0.010130711 0.47303393 0.49012318 -0.11120014 -0.20205836 -0.3828078
-0.31532314 0.23037715 -0.04382054 0.18568397 0.030403709 -0.23556766 -0.10183532 -0.039418347
-0.08242319 0.0640106 0.1778608 -0.14494027 -0.15696305 -0.30985895 -0.18209215 0.091976784
-0.020339511 -0.2343544 -0.47508448 -0.41177684 -0.0772166 0.123213656 -0.1421354 -0.27705348
-0.43672666 -0.51807314 -0.09440423 0.08153183 0.16440493 0.00487579 -0.247989 -0.3621185
0.022672357 0.14993447 0.20270582 0.15950698 -0.0040491233 0.025129437 -0.12564212 0.015442875
0.12659702 -0.156964 0.009366013 -0.1772485 -0.1376939 0.16752277 0.016024653 0.103729464
-0.015542652 -0.23405054 -0.04218709 0.17457789 0.16508393 0.04424659 0.0113611845 -0.13445036
-0.019381702 -0.022820111 -0.10948379 -0.20236765 0.062463645 0.15432744 0.23662633 0.24805513
-0.4793689 -0.40124667 0.36883804 0.25361106 0.40654916 -0.14732426 -0.4916922 0.18519053
-0.060020555 0.25801855 0.32970688 -0.43112332 -0.1740729 -0.07462099 0.015220467 0.31964114
0.030014142 -0.01950608 0.11433929 0.025686696 -0.36725363 0.1731741 0.095959425 0.21023196
00000000: c828 093e df81 e53e ee4d d33e 43b4 a33e
00000010: 0083 453e b580 bb3c 645b 0c3d e2ce 313d
00000020: 183d 0fbd 1992 813d 74db 47bd de50 a8be
00000030: cfda cebe 15b8 0ebe 09b7 e0bd 842c f7bc
00000040: 04ab 76be 4b03 49bd 12af 28be 82bd 3ebe
00000050: b2ef 5fbe d1b7 4abe cb68 15be 0090 a1b7
00000060: 0168 afbd 4193 4f3d 91a8 083e 03d5 803e
00000070: 1827 06bd fe1d fdbd 8254 323e 4e9e 523d
00000080: 064b 093e d6b4 e0bd a35c 2fbc 5498 6f3d
00000090: 2bcc 5cbd bd4e 5a3d 2074 023e abcc 3d3d
000000a0: 7223 86bd aa6d d63d 7e8b 37bd 3a58 a03d
000000b0: 9f6b 853d 4964 e3bb 6153 acbd 4c76 10be
000000c0: b06f ec3c 1d11 85bd 2976 57bc 8114 283e
000000d0: 2164 8c3e 41fa cb3d 732d 56bd cdaf d03d
000000e0: 67ab 0e3c 8746 a43d f630 cd3c 02d6 ef3d
000000f0: 2010 02be c7af 563d f6eb 893d 26f4 193e
00000100: e93e 833e b27e 0cbd ea5f bcbd 44f6 2f3c
00000110: 141a 073e 9f4c 753e b392 08bc 888b 1abe
00000120: 7f90 4bbe 5a9e e13c b4fb 9dbb 5d7b 1cbe
00000130: ad9e cd3e 7b48 33be cb5e 29be 85cf 79bd
00000140: 81c8 d5be 2071 f03e 4678 2e3f 9813 463f
00000150: 70c4 b63e 756b e1be 6540 09bf 2389 34bf
00000160: b9e5 4cbe 2f82 023e 19e8 063e e99c b0bd
00000170: c1f0 7ebe 9135 d4be 4319 bbbd 579b 913d
00000180: ad9e 38bc 4d65 083e 983f 31be 2ce2 1abe
00000190: 21e0 3c3b 08a5 fe3e 9262 cebe a9a4 babe
000001a0: e0ac 87be ec6f aebd 6c26 343f 2df8 ea3e
000001b0: 2bad 0f3f 6dd5 8c3e b8d7 87be 3a46 5fbe
000001c0: 1c03 0fbf 697d 92be fdbc 7fbd 2ec6 533e
000001d0: 734b 6c3e e5f8 b6bd 74c9 debc 45f4 3f3d
000001e0: 309b 9e3d 647c 723e e279 d53e bab2 1a3e
000001f0: 8ea1 7a3e 8816 61be f271 6b3e 5a1e 9bbe
00000200: e935 90be 20e1 e3bd 2024 38be 907b 963e
00000210: c62e 7c3e 553c 083f 38c4 2a3e 14c3 8dbe
00000220: 9995 d2be 1fa5 05bf 7253 4cbe 489c 56be
00000230: 3af6 cc3e 04da 1b3e ff52 723d 409d 54be
00000240: c4c8 8bbc fb76 e2bc b04c a33c d471 683e
00000250: d5bc 0d3d 4131 97bd 3d1b 04bd 141b f03d
00000260: 21dc 3a3e 65ec 633e 813e cc3d 6f69 513d
00000270: 264b 4d3e ba24 993e 1bba e43e 1f0c 943e
00000280: 0d5a 203e db23 fdbd 48fb 25bc 8131 f23e
00000290: 6df1 fa3e e6bc e3bd 63e8 4ebe 62ff c3be
000002a0: 0972 a1be fde7 6b3e 2b7d 33bd f023 3e3e
000002b0: 3311 f93c a638 71be 098f d0bd 2275 21bd
000002c0: 7dcd a8bd fd17 833d 2421 363e 396b 14be
000002d0: ecba 20be d5a5 9ebe 5d76 3abe 535e bc3d
000002e0: 0c9f a6bc 9afa 6fbe 463e f3be 6ad4 d2be
000002f0: bd23 9ebd 7157 fc3d f18b 11be f4d9 8dbe
00000300: a39a dfbe 71a0 04bf 0157 c1bd 29fa a63d
00000310: c459 283e 17c5 9f3b d4f0 7dbe 9967 b9be
00000320: 61bb b93c 6c88 193e 1d92 4f3e cc55 233e
00000330: 82ae 84bb 40dc cd3c 54a8 00be 1d04 7d3c
00000340: a6a2 013e 2cbb 20be e873 193c a180 35be
00000350: a1ff 0cbe 178b 2b3e 2246 833c 1d70 d43d
00000360: 9ca6 7ebc f2aa 6fbe 5fcc 2cbd 8cc4 323e
00000370: c30b 293e ea3b 353d 4324 3a3c 5bad 09be
00000380: 60c6 9ebc 3ef1 babc 0a39 e0bd 7739 4fbe
00000390: e1d9 7f3d 0308 1e3e 2c4e 723e 2a02 7e3e
000003a0: d76f f5be 3470 cdbe 57d8 bc3e 4fd9 813e
000003b0: 3627 d03e 2cdc 16be 14bf fbbe 96a2 3d3e
000003c0: 1dd8 75bd 021b 843e 57cf a83e 32bc dcbe
000003d0: 2b40 32be e4d2 98bd 445f 793c 01a8 a33e
000003e0: 38e0 f53c 37cb 9fbc b82a ea3d e86c d23c
000003f0: ab08 bcbe 8d54 313e 6086 c43d 0c47 573e

conv1.bias f4 [16]
-0.085578255 -0.341712 -0.65148205 -0.31300452 -0.5546313 -0.843901 0.036900625 -0.33783275
-0.596447 -0.34703583 -0.61192405 -0.2032123 -0.193062 -0.3365875 -0.32785103 -0.32860085
00000000: a743 afbd e0f4 aebe 87c7 26bf 2142 a0be
00000010: 51fc 0dbf e509 58bf 1c25 173d 6af8 acbe
00000020: c0b0 18bf aeae b1be 0ea7 1cbf e316 50be
00000030: 0cb2 45be 3255 acbe 17dc a7be 5f3e a8be

conv2.weight f4 [32, 16, 5, 5]
0.13182874 0.12111335 0.26212958 0.5571287 0.3327856 -0.08498286 -0.21972916 0.011450117
-0.1152818 0.32854167 0.21086133 -0.5336963 -0.0991125 -0.42301145 -0.054860875 -0.39257136
-0.18889216 0.07552358 -0.49003118 0.040556107 -0.16232216 -0.18985823 0.081208676 0.06591769
-0.15492842 -0.42168638 0.28194144 0.3168818 0.5804081 0.22709073 -0.22285981 0.012674499
-0.041345548 -0.20536493 0.11894137 -0.27423534 0.3481811 0.4011405 0.53583616 -0.19041547
-0.16077127 -0.028504265 -0.107186034 0.19422278 -0.009623934 -0.54263914 -0.060360976 -0.291106
-0.19181624 -0.06468514 -0.06585553 -0.39279875 -0.37072062 -0.053869206 -0.5029663 0.095903136
-0.060995035 -0.20567283 -0.18804312 -0.06566461 0.3511121 0.13644587 -0.061637837 -0.16132896
-0.11466213 0.4510988 0.29998475 0.4349483 0.3088832 0.2140789 0.4309448 0.34611166
0.5143879 0.5784824 0.30944932 0.21780133 0.096955374 -0.107711546 0.19723062 0.18177435
0.5856431 0.09560743 0.3000018 0.115769066 0.21958591 0.21819916 -0.023235919 0.22648257
-0.036886867 -0.40348113 -0.14765674 -0.4365926 0.34938627 -0.14555459 -0.7074733 -0.10245814
-0.93456113 0.24316263 0.2292191 -0.8566645 0.03000213 -0.00013220444 0.26055947 0.03726245
0.35659793 -0.028884264 0.07554725 -0.11452524 -0.74816906 -0.30121982 0.27299306 0.24817216
0.5078544 0.16014951 0.16118194 -0.22391823 0.11503856 0.2952826 0.37493554 0.67002904
-0.2975086 -0.33669895 0.14531362 0.29502073 0.4324468 -0.048023593 -0.49677938 -0.18844122
-0.1442315 -0.20035754 0.010700907 -0.23526633 -0.5663277 -0.18632221 -0.24836777 0.1357617
-0.001929361 0.0075882054 -0.0032354917 -0.07345169 -0.15821864 0.17858751 0.1970053 -0.02878269
-0.26250207 -0.21813752 0.5510417 0.12582918 -0.107332826 -0.33672038 -0.63704777 -0.06008313
0.23225974 0.44427344 0.11266298 -0.1442073 -0.22982755 0.1665858 0.29783687 0.14726762
-0.057944633 -0.19379744 0.0030159047 -0.069686785 -0.21765625 -0.17782828 -0.14951153 -0.30070698
0.13728905 -0.4720053 0.23412049 0.23445256 0.2947882 0.37958565 0.0647069 0.17593266
0.21795002 0.18538617 0.18935011 0.1446854 0.22002362 -0.49665666 -0.41108152 0.014501792
-0.21677542 -0.025776211 -0.07252502 -0.08427215 0.24957597 -0.04245845 -0.018589085 -0.31150904
-0.18266088 0.027623814 -0.063716136 -0.41320357 -0.1874506 -0.020981906 0.21265101 -0.21031247
-0.27072206 -0.20286332 -0.23652816 -0.4264835 -0.3658164 0.31132236 0.3341486 -0.06719481
-0.17610145 -0.023608925 0.25897595 0.26329112 0.08929605 0.059189614 0.31629604 0.31030476
-0.08670363 0.25299582 0.37754932 0.13671431 -0.09388377 -0.29259926 -0.15968841 0.22093363
0.5021445 0.041304592 0.0077839084 0.11894333 0.038768623 0.4627419 -0.24649411 0.46712494
0.5127852 0.68364793 0.3070746 0.18422231 -0.20961125 -0.10793651 0.13682216 0.064792424
-0.12901683 -0.27590108 -0.4113826 -0.1737222 -0.28480068 0.015530882 0.0072793677 0.053761218
-0.008914895 -0.5418913 0.04053534 0.19523121 0.19000566 0.3600827 0.36676148 -0.17509635
00000000: 1dfe 063e 470a f83d d935 863e fd9f 0e3f
00000010: e062 aa3e 7e0b aebd ae00 61be 4699 3b3c
00000020: dd18 ecbd 9d36 a83e 08ec 573e 52a0 08bf
00000030: 7ffb cabd f594 d8be ccb5 60bd 1dff c8be
00000040: f26c 41be 1bac 9a3d 5ee5 fabe 291e 263d
00000050: c837 26be 326a 42be bc50 a63d dbff 863d
00000060: 8ea5 1ebe 47e7 d7be a15a 903e 553e a23e
00000070: a095 143f 798a 683e 5d35 64be b4a8 4f3c
00000080: f359 29bd 2f4b 52be 8897 f33d 9368 8cbe
00000090: cb44 b23e 4a62 cd3e 8f2c 093f 46fc 42be
000000a0: 39a1 24be c781 e9bc 5a84 dbbd 56e2 463e
000000b0: b4ad 1dbc 66ea 0abf 123d 77bd d80b 95be
000000c0: 7a6b 44be a579 84bd 44df 86bd eb1c c9be
000000d0: 18cf bdbe f5a5 5cbd 66c2 00bf dd68 c43d
000000e0: eed5 79bd e69b 52be 608e 40be 2b7b 86bd
000000f0: f7c4 b33e 77b8 0b3e f577 7cbd 6b33 25be
00000100: fbd3 eabd 6cf6 e63e 9a97 993e 8bb1 de3e
00000110: f025 9e3e 8037 5b3e cca4 dc3e 8c35 b13e
00000120: edae 033f 6c17 143f 2470 9e3e 5007 5f3e
00000130: 8a90 c63d df97 dcbd d3f6 493e 0e23 3a3e
00000140: b5ec 153f d4cd c33d d699 993e 5518 ed3d
00000150: 21db 603e 9a6f 5f3e 4159 bebc 0ceb 673e
00000160: af16 17bd 1495 cebe 5433 17be 1189 dfbe
00000170: c2e2 b23e 430c 15be f81c 35bf 93d5 d1bd
00000180: 663f 6fbf a0ff 783e 69b8 6a3e 5d4e 5bbf
00000190: 07c7 f53c 5ca0 0ab9 0d68 853e 83a0 183d
000001a0: 0194 b63e b19e ecbc 84b8 9a3d 368c eabd
000001b0: 0288 3fbf 7c39 9abe bfc5 8b3e d820 7e3e
000001c0: bf02 023f 3cfe 233e e10c 253e d24a 65be
000001d0: 5699 eb3d 482f 973e 8df7 bf3e 0687 2b3f
000001e0: 0c53 98be ce63 acbe 18cd 143e f50c 973e
000001f0: ab69 dd3e 63b4 44bd de59 febe bcf6 40be
00000200: 6cb1 13be 872a 4dbe db52 2f3c a8e9 70be
00000210: dafa 10bf 40cb 3ebe 1f54 7ebe 1d05 0b3e
00000220: 9de2 fcba 7ba6 f83b 8b0a 54bb d76d 96bd
00000230: 1104 22be a5df 363e c2bb 493e adc9 ebbc
00000240: ac66 86be 715f 5fbe 1211 0d3f 5dd9 003e
00000250: 50d1 dbbd 9d66 acbe 9015 23bf ba19 76bd
00000260: 7fd5 6d3e cf77 e33e d9bb e63d 14ab 13be
00000270: ea57 6bbe 7895 2a3e 137e 983e 53cd 163e
00000280: 5a57 6dbd d672 46be 7ca6 453b f2b7 8ebd
00000290: 48e1 5ebe 9e18 36be 8d19 19be 44f6 99be
000002a0: 8095 0c3e aeaa f1be 48bd 6f3e 5514 703e
000002b0: 7bee 963e 0d59 c23e 0d85 843d b127 343e
000002c0: 4a2e 5f3e dfd5 3d3e ffe4 413e 6928 143e
000002d0: df4d 613e c849 febe 4779 d2be ed98 6d3c
000002e0: 60fa 5dbe a228 d3bc ff87 94bd e196 acbd
000002f0: d890 7f3e e9e8 2dbd 2348 98bc 1d7e 9fbe
00000300: 740b 3bbe 564b e23c 9b7d 82bd 6b8f d3be
00000310: 0df3 3fbe 3fe2 abbc 30c1 593e 275c 57be
00000320: 159c 8abe 67bb 4fbe 7034 72be 0c5c dabe
00000330: 4a4c bbbe a565 9f3e 8615 ab3e 6f9d 89bd
00000340: f053 34be 8167 c1bc 7f98 843e 18ce 863e
00000350: d9e0 b63d cf70 723d 8ef1 a13e 44e0 9e3e
00000360: ac91 b1bd ab88 813e 254e c13e d6fe 0b3e
00000370: 2246 c0bd 92cf 95be 5c85 23be 6d3c 623e
00000380: 8b8c 003f 012f 293d 2810 ff3b 9098 f33d
00000390: d9cb 1e3d 82ec ec3e f468 7cbe 002b ef3e
000003a0: e445 033f 8d03 2f3f e238 9d3e c6a4 3c3e
000003b0: 55a4 56be d10d ddbd 1c1b 0c3e e4b1 843d
000003c0: fd1c 04be e842 8dbe bda0 d2be 3be4 31be
000003d0: 65d1 91be 3e75 7e3c c387 ee3b b934 5c3d
000003e0: c80f 12bc 63b9 0abf 6208 263d b1ea 473e
000003f0: d890 423e c25c b83e 29c8 bb3e 754c 33be

conv2.bias f4 [32]
-1.2542481 -0.023857277 -0.10417229 -0.24459492 -0.1122711 -0.043135718 -0.37421978 -1.0693539
1.294868 1.4071939 0.70633215 -0.35430244 -0.2324047 0.22778471 -0.713359 -0.016628735
0.068174414 -0.48635086 -0.040567316 0.52129966 1.1649657 0.09093302 -0.28219602 0.56764615
1.1795956 0.5903124 -1.5438882 -1.875263 0.24463633 0.32322925 -0.24945335 0.40411216
00000000: 348b a0bf 5670 c3bc 4858 d5bd 1777 7abe
00000010: 64ee e5bd 14af 30bd bc99 bfbe 97e0 88bf
00000020: 3cbe a53f ee1e b43f 2fd2 343f 2167 b5be
00000030: 7ffb 6dbe 6540 693e b29e 36bf fc38 88bc
00000040: 079f 8b3d fb02 f9be ea29 26bd e573 053f
00000050: 991d 953f 173b ba3d ff7b 90be 4251 113f
00000060: fdfc 963f b71e 173f 219e c5bf 9e08 f0bf
00000070: f281 7a3e 4e7e a53e b370 7fbe cae7 ce3e

fc1.weight f4 [120, 800]
-0.20305577 0.0058418903 0.261729 0.15697826 0.7563448 -0.5905392 0.00747175 0.23846355
-0.24627934 -0.7005116 -0.496559 -0.76096743 -0.1565188 -0.14522058 -0.013947187 -0.010753721
-0.31113425 -0.3980254 -0.212541 0.3175863 -0.13955301 -0.30944622 -0.39096227 -0.05828463
0.14058071 -0.41634047 -0.10463365 -0.7931831 -0.25973344 0.13457602 0.090536565 -0.18673694
-0.21517485 0.12234833 0.07319073 0.2745762 0.42515782 0.6232022 0.07777197 0.7592108
0.401361 -0.05276955 0.30680108 0.017289247 0.13608539 0.2883655 -0.32298398 -0.22461745
0.1707864 -0.11366254 -0.031651095 0.014566011 0.0036757851 0.014890322 0.032445602 0.020361
-0.026284121 -0.018165426 -0.0060666893 -0.03335367 0.0050173183 0.024896815 0.024416901 0.021869626
-0.003851074 -0.0071437936 -0.0031941286 -0.027265443 0.00092134054 -0.054858025 0.057138775 0.02554906
-0.0036502194 -0.015424832 -0.0070846393 0.06691077 -0.17702825 0.59020656 -0.548985 -0.38405415
0.065222405 -0.199777 0.014402438 -0.320429 -1.2912618 0.8618587 -0.2957472 -0.2844509
-0.36521423 -0.24679916 -0.18159725 -0.33544624 -0.21169274 0.021994209 0.32905835 0.12101513
0.051973484 -0.1010728 0.088698626 -0.21701223 0.087701045 -0.023432761 0.13396582 -0.017841188
-0.23666845 0.12025189 0.029743664 0.11200948 0.059185233 -0.20138137 0.08030184 0.8972367
0.5185415 -0.24448714 -0.72967196 0.073017344 0.1614911 0.049517334 0.014728831 -0.098468654
-0.2845825 0.01758136 -0.2610863 0.23012681 -0.86112136 -0.038101573 0.03114564 0.19128592
0.6768769 -0.30365005 -0.05226377 0.13283327 -0.6139889 -0.57417786 -0.30273998 -0.13424648
-0.6255936 0.0013495805 -0.41640216 0.056329582 0.15343949 0.26204273 0.16706516 -0.4162902
0.053979702 0.08791731 -0.2821975 0.38882032 0.025639826 -0.05683345 0.43973893 -0.053074487
0.058819626 -0.3436369 -0.34077895 -0.34915236 0.14870209 0.043490857 -0.1402314 0.03483709
0.3395905 -0.25751737 -0.82765424 -0.5180329 0.025147911 0.52206826 -0.1284337 -0.3112885
-0.30687234 -0.46889022 0.81056136 -0.084778 0.50422764 0.22907047 -0.088211276 -0.12198952
0.4641384 0.14932632 -0.19986667 0.1504643 0.07606805 -0.21866359 -0.25532648 0.06652694
0.07699153 -0.03582169 -0.19650917 0.24095424 -0.10233371 -0.325823 0.2575723 0.016759701
0.32131705 0.17415687 0.39959872 0.37243372 -0.3079762 -0.26462886 0.44212514 0.1497748
0.0713079 -0.50774187 -0.1815828 -0.604984 -0.38430795 -0.15898575 -0.19183922 -0.0307601
0.006121152 -0.56927276 -0.20001419 0.4116957 -0.10966189 0.3793773 -0.3964292 0.071382366
0.40745097 0.18892749 -0.30769458 -0.0054280953 -0.3748536 1.1256851 -0.03546064 0.41435364
0.066906996 0.3946065 0.24232905 -0.4198325 -0.043867555 -0.08205909 -0.5311425 -0.045314867
0.55713344 -0.27124867 0.22691403 0.078321636 0.26851943 -0.4774816 0.082731135 0.13106917
-0.365367 0.1408386 -0.22920343 0.2185082 0.5239218 0.14685151 -0.08312139 0.06709823
0.31385198 0.4255739 0.40983742 0.06535355 -0.7949347 -0.005400124 -0.1438836 0.23207681
00000000: daed 4fbe 546d bf3b 5801 863e e9be 203e
00000010: d09f 413f 942d 17bf 95d5 f43b ca2f 743e
00000020: a730 7cbe ba54 33bf fb3c febe c3ce 42bf
00000030: 7746 20be b4b4 14be be82 64bc 6030 30bc
00000040: fd4c 9fbe fcc9 cbbe 59a4 59be ac9a a23e
00000050: fce6 0ebe bc6f 9ebe 352c c8be ddbb 6ebd
00000060: 64f4 0f3e 942a d5be 2b4a d6bd 0c0e 4bbf
00000070: c8fb 84be 4cce 093e 3c6b b93d f837 3fbe
00000080: cc56 5cbe c391 fa3d 05e5 953d 4095 8c3e
00000090: 49ae d93e 2e8a 1f3f e946 9f3d a45b 423f
000000a0: 307f cd3e e224 58bd 0815 9d3e 2ea2 8d3c
000000b0: f859 0b3e a5a4 933e 285e a5be 1e02 66be
000000c0: a1e2 2e3e e8c7 e8bd 94a4 01bd 47a6 6e3c
000000d0: 71e5 703b 8af6 733c aee5 043d 1dcc a63c
000000e0: cc51 d7bc a9cf 94bc 14cb c6bb dc9d 08bd
000000f0: 5168 a43b 68f4 cb3c f405 c83c ee27 b33c
00000100: 4d62 7cbb 7c16 eabb 9654 51bb c75b dfbc
00000110: 1e86 713a cfb2 60bd 590a 6a3d 434c d13c
00000120: 8538 6fbb 6fb8 7cbc 4326 e8bb 8408 893d
00000130: e546 35be c717 173f 488a 0cbf bfa2 c4be
00000140: 5393 853d 5892 4cbe 34f8 6b3c 450f a4be
00000150: 1148 a5bf c6a2 5c3f 2d6c 97be 8ca3 91be
00000160: 5cfd babe ebb8 7cbe a1f4 39be 9cbf abbe
00000170: fbc5 58be 332d b43c 567a a83e c8d6 f73d
00000180: 26e2 543d 42ff cebd a0a7 b53d 7438 5ebe
00000190: 9b9c b33d 10f6 bfbc 562e 093e af27 92bc
000001a0: 3759 72be 9f46 f63d fca8 f33c 3a65 e53d
000001b0: 376c 723d eb36 4ebe 4b75 a43d 4eb1 653f
000001c0: 23bf 043f d65a 7abe c8cb 3abf 1e8a 953d
000001d0: ec5d 253e b0d2 4a3d 3251 713c efa9 c9bd
000001e0: ccb4 91be c906 903c 1aad 85be 5da6 6b3e
000001f0: 7372 5cbf 6510 1cbd 2425 ff3c 75e0 433e
00000200: ce47 2d3f 0578 9bbe 8912 56bd 7205 083e
00000210: 602e 1dbf 52fd 12bf bc00 9bbe e977 09be
00000220: e726 20bf 68e4 b03a aa32 d5be d9b9 663d
00000230: 3e1f 1d3e 772a 863e 2113 2b3e fd23 d5be
00000240: d219 5d3d fe0d b43d 317c 90be 7513 c73e
00000250: 9d0a d23c 31ca 68bd 7625 e13e a264 59bd
00000260: d9ec 703d 2df1 afbe 947a aebe 19c4 b2be
00000270: 5c45 183e 7823 323d d298 0fbe 56b1 0e3d
00000280: cede ad3e 51d9 83be 26e1 53bf ce9d 04bf
00000290: fe02 ce3c 44a6 053f 2084 03be 3561 9fbe
000002a0: 5f1e 9dbe 6112 f0be f380 4f3f 17a0 adbd
000002b0: 1015 013f 7391 6a3e 1da8 b4bd a4d5 f9bd
000002c0: 8ca3 ed3e 00e9 183e d9a9 4cbe 5013 1a3e
000002d0: 91c9 9b3d 59e9 5fbe 27ba 82be 473f 883d
000002e0: bcad 9d3d c4b9 12bd b339 49be b5bc 763e
000002f0: 5694 d1bd 46d2 a6be 84e0 833e a44b 893c
00000300: ab83 a43e 2e56 323e 3498 cc3e a2af be3e
00000310: 0eaf 9dbe 6f7d 87be 3a5e e23e 915e 193e
00000320: e009 923d 5ffb 01bf d7f0 39be 3be0 1abf
00000330: 03c4 c4be 29cd 22be 8071 44be 9bfc fbbc
00000340: f293 c83b dcbb 11bf 85d0 4cbe c7c9 d23e
00000350: 6a96 e0bd be3d c23e c5f8 cabe eb30 923d
00000360: 6a9d d03e 3576 413e 258a 9dbe 2ade b1bb
00000370: d0ec bfbe 7316 903f 2d3f 11bd 2926 d43e
00000380: 8906 893d dd09 ca3e 1b25 783e 49f4 d6be
00000390: 77ae 33bd 990e a8bd f4f8 07bf 159c 39bd
000003a0: 4ca0 0e3f 1be1 8abe 275c 683e 1867 a03d
000003b0: 617b 893e 7878 f4be f16e a93d ff36 063e
000003c0: 6211 bbbe fe37 103e 4eb4 6abe 9dc0 5f3e
000003d0: bd1f 063f 3e60 163e 8c3b aabd cc6a 893d
000003e0: 35b1 a03e d2e4 d93e 36d6 d13e 15d8 853d
000003f0: d780 4bbf 86f3 b0bb 3956 13be 8ba5 6d3e

fc1.bias f4 [120]
0.29390293 -0.010734001 0.5397603 0.30785942 -0.00685612 -0.06744487 -0.60723203 1.2965738
0.15946738 0.16894285 0.603098 -1.2401453 -0.003667272 -0.42763454 0.05117353 1.0146382
-1.024291 -0.8056795 -0.029088277 0.00836843 -0.14163148 -0.055666234 0.9419873 -0.05276567
0.11274424 -0.05345405 -1.0293076 -0.011665829 -0.28043616 -0.25121078 0.7744789 0.0070353206
-0.0355524 -0.035173155 0.22395399 0.13908191 -0.050930154 -0.0577385 0.37233177 0.101932056
-0.010220716 -0.034269974 -0.0438773 -0.231641 -0.8895309 0.86747074 0.89258325 0.47316223
0.87238836 1.2031364 0.35420686 0.02090072 -0.4997847 0.73112226 -0.051131003 -1.1686224
-0.020429282 0.015790362 -0.011674504 -0.009137328 -0.030834489 -0.0056049735 -0.019525433 1.2318885
-0.2317772 -0.036632523 -0.7506438 0.013619033 0.13919933 0.2798942 -0.1434739 -0.14993088
0.019679075 -0.40301648 -1.1350738 -0.018433314 -0.04152083 0.017192848 0.15122016 1.1435974
1.7812371 -0.018199727 0.3331357 0.74811965 -0.050858762 -0.005441347 -0.023526635 1.4318656
0.75273985 0.0013158248 -0.7853842 -0.18214744 -0.008039774 0.4866972 -0.38166854 -0.04423272
-0.58142 -0.11929918 -0.0505291 -0.45327327 -0.019199813 0.003955394 0.24829982 0.0056989505
-0.711445 -0.043626007 -0.538908 -0.07099876 0.23750006 -0.983115 -0.20143852 -0.018842136
-0.022992913 0.24517494 -0.06325189 0.20316118 0.34690183 -0.042781696 -0.17018381 0.071445726
00000000: 727a 963e aadd 2fbc bb2d 0a3f c09f 9d3e
00000010: 4ea9 e0bb 8920 8abd 8f73 1bbf 21f6 a53f
00000020: 6b4b 233e 5bff 2c3e a164 1a3f 15bd 9ebf
00000030: 9d56 70bb eaf2 dabe 569b 513d aadf 813f
00000040: f81b 83bf 0341 4ebf 8a4a eebc bd1b 093c
00000050: d807 11be 4702 64bd 1426 713f d120 58bd
00000060: 74e6 e63d a2f2 5abd 5ac0 83bf 0922 3fbc
00000070: 5495 8fbe b39e 80be 4044 463f 8c88 e63b
00000080: 659f 11bd ba11 10bd 3254 653e 7d6b 0e3e
00000090: 239c 50bd 357f 6cbd 45a2 be3e c1c1 d03d
000000a0: ca74 27bc ac5e 0cbd afb8 33bd 4c33 6dbe
000000b0: 4cb8 63bf 9012 5e3f 5680 643f 5242 f23e
000000c0: d854 5f3f 6000 9a3f 9a5a b53e fd37 ab3c
000000d0: c8e3 ffbe d42a 3b3f be6e 51bd 6b95 95bf
000000e0: 4f5b a7bc ca5a 813c 6b46 3fbc bbb4 15bc
000000f0: 9c98 fcbc eda9 b7bb cdf3 9fbc 86ae 9d3f
00000100: 0157 6dbe fc0b 16bd 312a 40bf 5d22 5f3c
00000110: 458a 0e3e 4b4e 8f3e d2ea 12be 7b87 19be
00000120: 0336 a13c 2d58 cebe 194a 91bf 7601 97bc
00000130: bf11 2abd 04d8 8c3c 75d9 1a3e 6661 923f
00000140: 94ff e33f 9817 95bc c390 aa3e c584 3f3f
00000150: 4751 50bd 544d b2bb eeba c0bc 5f47 b73f
00000160: 8fb3 403f c177 ac3a f00e 49bf dc84 3abe
00000170: 42b9 03bc 6030 f93e 0f6a c3be 5e2d 35bd
00000180: f1d7 14bf 2153 f4bd 9af7 4ebd 6f13 e8be
00000190: ed48 9dbc 409c 813b 4f42 7e3e 43be ba3b
000001a0: 4221 36bf 2fb1 32bd e0f5 09bf cc67 91bd
000001b0: 3733 733e 6dad 7bbf e645 4ebe d35a 9abc
000001c0: a25b bcbc 240f 7b3e 358a 81bd 7c09 503e
000001d0: 1e9d b13e dc3b 2fbd aa44 2ebe 2352 923d

fc2.weight f4 [84, 120]
-0.21324496 0.060410693 0.14915588 0.011412323 0.08099144 0.061091617 0.40639982 -0.043805372
-0.05330266 0.557038 0.078674205 -0.1428205 -0.05630152 0.09481558 0.55799866 0.22334671
-0.4843806 -0.000168588 -0.053492937 0.4102037 0.20954396 0.020930575 -0.58985907 0.18221968
-0.151881 -0.009553876 -0.5167586 -0.04528214 0.08212502 -0.31238967 0.11963156 -0.06433088
-0.005401233 -0.01914919 -0.48466614 -0.34489015 0.06401953 -0.032107793 -0.10949804 0.12868024
0.007476615 0.007008247 0.07458198 0.09241044 -0.013819438 -0.30404884 -0.104523845 0.40679228
-0.09188949 0.28445697 -1.2027041 0.58342874 -0.154232 -0.45824865 0.04489617 0.08778574
-0.06695062 0.031153794 0.0702639 -0.04728035 0.047593776 0.07343388 -0.07926992 -0.65572816
-0.69327843 0.027278531 0.24881774 0.29395634 0.1840678 0.12346005 0.21888353 -0.41358203
0.039778326 0.38765022 0.25510728 0.03793539 -0.069237694 -0.013953381 -0.8940819 -0.03635969
0.029062962 0.052638944 0.5426493 -0.0862671 -0.061211824 0.06534286 -0.041073374 0.047259346
0.060786106 -0.025073772 -0.27060625 -0.42104992 -0.03198673 0.10540923 -0.21057662 0.073528044
0.11662886 0.1503511 -0.0022984147 -0.011019245 0.07061939 -0.031112697 0.013729461 -0.004325433
-0.21363792 0.08121798 0.02276534 -0.04510378 -0.010025543 -0.17929041 0.06561825 0.028357344
0.0038052057 -0.24441522 -0.02515519 -0.3489738 -0.18933132 -0.013588831 -0.18840787 -0.12550788
-0.11102386 0.0636027 -0.33438972 -0.08255417 0.004272365 0.0018112537 0.25264496 -0.021759136
0.028337449 0.2954856 -0.29102504 -0.09704762 -0.0075408774 0.15770057 0.1240527 0.23871061
-0.13330333 0.36780357 0.025118677 -0.012211656 -0.29496285 0.09882214 0.09573622 -0.46613154
-0.2016442 0.007378768 0.017677478 0.042068712 0.03950725 -0.42453784 0.18638743 -0.033030655
-0.085938826 0.02885225 -0.19017209 -0.13330142 -0.030389827 0.034590915 -0.049383406 0.05610724
0.057208374 -0.012854722 0.08484537 0.09120746 0.3411009 0.15416625 0.29565388 -0.53281784
-0.13110448 -0.21020493 0.13254566 -0.15235451 -0.18272653 0.11462735 -0.026891565 -0.11102463
-0.014307365 0.06190679 -0.051604375 0.0282615 0.034068286 0.06648913 0.0039920053 -0.29283154
-0.09773222 -0.067393 -0.11222716 -0.012491803 -0.41286126 0.028628675 0.043053962 0.16718093
0.10179514 0.013908543 -0.14852287 0.0013326057 0.03160012 -0.054064866 0.118516155 0.05129207
0.26890147 -0.0428648 0.06582524 0.036045086 0.059870858 -0.054474138 0.0040525254 -0.25663376
0.2990773 0.066844486 -0.14907981 -0.7109747 0.038514227 -0.1923982 -0.083411925 -0.059444256
0.23045705 0.2934558 0.026638653 -0.5578737 -0.011634601 -0.020823043 -0.01672288 -0.09237274
0.049036827 -0.11441037 0.13318624 -0.11936569 -0.27810243 0.26875916 -0.008393104 0.03133072
-0.07843238 -0.5742948 0.08703809 -0.30317244 -0.1294727 -0.017968524 -0.4424799 -0.92093873
-0.059565715 0.042518515 -0.22174132 0.31405133 0.018034227 0.014847132 0.060429335 -0.051160157
-0.22500889 -0.08943387 -0.2478691 -0.04915896 0.00040138507 -0.32793853 0.33335415 0.2775186
00000000: e35c 5abe 3471 773d 52bc 183e c1fa 3a3c
00000010: d7de a53d 343b 7a3d a313 d03e 436d 33bd
00000020: e453 5abd 0b9a 0e3f f11f a13d 8a3f 12be
00000030: 6c9c 66bd ac2e c23d 00d9 0e3f 00b5 643e
00000040: bc00 f8be ffc6 30b9 691b 5bbd 3806 d23e
00000050: b192 563e 9976 ab3c 0101 17bf cc97 3a3e
00000060: b186 1bbe dc87 1cbc 4b4a 04bf c479 39bd
00000070: 2a31 a83d 8af1 9fbe 6401 f53d e9bf 83bd
00000080: d4fc b0bb c3de 9cbc 2926 f8be 7195 b0be
00000090: ac1c 833d 7683 03bd 8240 e0bd c1c4 033e
000000a0: 64fe f43b 70a5 e53b 70be 983d af41 bd3d
000000b0: ed6a 62bc 4aac 9bbe 9910 d6bd 1447 d03e
000000c0: 8f30 bcbd 58a4 913e 35f2 99bf 965b 153f
000000d0: feee 1dbe 919f eabe 0ce5 373d 03c9 b33d
000000e0: 681d 89bd 3e36 ff3c 85e6 8f3d 0aa9 41bd
000000f0: b1f1 423d 8164 963d 4558 a2bd cddd 27bf
00000100: b27a 31bf 3a77 df3c 14ca 7e3e 7281 963e
00000110: 457c 3c3e 9fd8 fc3d 0123 603e 06c1 d3be
00000120: 99ee 223d 177a c63e 6c9d 823e 2462 1b3d
00000130: 7ecc 8dbd b99c 64bc 8de2 64bf e6ed 14bd
00000140: 7315 ee3c ef9b 573d 11eb 0a3f ceac b0bd
00000150: 40b9 7abd 7ad2 853d 8e3c 28bd 0493 413d
00000160: dafa 783d 8367 cdbc e78c 8abe db93 d7be
00000170: 8404 03bd cbe0 d73d 66a1 57be df95 963d
00000180: 1ddb ee3d a4f5 193e 00a1 16bb 108a 34bc
00000190: e6a0 903d 0ee0 febc 88f1 603c 5dbc 8dbb
000001a0: e6c3 5abe 9d55 a63d 617e ba3c bebe 38bd
000001b0: 2d42 24bc e897 37be dc62 863d a94d e83c
000001c0: c260 793b fc47 7abe 4212 cebc b2ac b2be
000001d0: 12e0 41be b0a3 5ebc feed 40be 2385 00be
000001e0: 7a60 e3bd 2242 823d 2135 abbe 2912 a9bd
000001f0: 32ff 8b3b 9767 ed3a ae5a 813e 3740 b2bc
00000200: f023 e83c e349 973e 3c01 95be e7c0 c6bd
00000210: 7719 f7bb 427c 213e 580f fe3d 8e70 743e
00000220: ab80 08be c050 bc3e afc5 cd3c 6613 48bc
00000230: 5f05 97be 4363 ca3d 5a11 c43d cba8 eebe
00000240: d17b 4ebe 98c9 f13b 5cd0 903c 3e50 2c3d
00000250: 5bd2 213d 065d d9be 59dc 3e3e 274b 07bd
00000260: b200 b0bd 8e5b ec3c 79bc 42be 2b80 08be
00000270: 16f4 f8bc 34af 0d3d 4146 4abd b5d0 653d
00000280: 5453 6a3d 9d9c 52bc 69c3 ad3d faca ba3d
00000290: c7a4 ae3e c2dd 1d3e f25f 973e c066 08bf
000002a0: 4140 06be f63f 57be 0dba 073e d202 1cbe
000002b0: aa1c 3bbe bec1 ea3d b34b dcbc e260 e3bd
000002c0: 7069 6abc f991 7d3d 1c5f 53bd a984 e73c
000002d0: 308b 0b3d 742b 883d 5ecf 823b 04ee 95be
000002e0: d527 c8bd 5705 8abd 5ad7 e5bd 6baa 4cbc
000002f0: 8d62 d3be af86 ea3c 5a59 303d 7a31 2b3e
00000300: f879 d03d a8e0 633c 6116 18be d4aa ae3a
00000310: 216f 013d 1f73 5dbd 99b8 f23d a217 523d
00000320: 74ad 893e 0093 2fbd 62cf 863d 03a4 133d
00000330: 253b 753d 4620 5fbd 0ccb 843b 8065 83be
00000340: a920 993e c3e5 883d 61a8 18be 7002 36bf
00000350: 18c1 1d3d 0904 45be dfd3 aabd d27b 73bd
00000360: effc 6b3e d73f 963e 4e39 da3c d0d0 0ebf
00000370: 0e9f 3ebc 1695 aabc 6cfe 88bc eb2d bdbd
00000380: d7da 483d fc4f eabd f961 083e 0076 f4bd
00000390: 7163 8ebe cd9a 893e 3b83 09bc a454 003d
000003a0: 28a1 a0bd fc04 13bf 0741 b23d 6b39 9bbe
000003b0: 7e94 04be ba32 93bc ba8c e2be a4c2 6bbf
000003c0: 2efb 73bd e527 2e3d 2810 63be 56cb a03e
000003d0: 84bc 933c 6341 733c c084 773d 508d 51bd
000003e0: bb68 66be 1b29 b7bd 66d1 7dbe e85a 49bd
000003f0: fe70 d239 8fe7 a7be 65ad aa3e eb16 8e3e

fc2.bias f4 [84]
-0.14755043 0.7817433 -0.51141864 -0.640575 2.5076067 0.728498 -1.0601093 -0.75468254
0.605465 -0.01169792 0.4234843 -0.99830115 2.0686545 0.11906049 1.0524051 -1.6099151
1.8054044 -0.6275019 0.50829667 -0.08203673 -0.82757884 -0.64823896 -0.3266863 -0.2261959
-0.49502596 -0.854515 0.42680854 0.6133987 0.006232419 0.53262275 -1.0112935 0.7179897
0.59939736 -0.38011858 1.0262634 1.44401 0.4361653 -0.7165245 0.3093008 -1.5623454
0.1274692 -0.3803807 0.3449352 -0.23716494 0.22345054 -0.18070877 -0.7771986 1.0425117
0.74963295 -0.49173772 -0.1256103 1.7670141 -0.66648155 0.8823671 0.35599133 0.7090928
-0.99795204 0.62232524 -0.659558 -0.1262581 -1.108395 -0.0793753 0.816912 -0.33902398
0.17225362 0.3423757 -0.30781332 -0.3565057 1.1775451 1.7258027 1.8239274 -1.0660902
-0.33251855 -0.20936602 -0.9608301 -0.15007982 -0.13865401 -0.3275535 -0.49565622 0.42543608
1.30073 1.3869392 -0.5025235 0.33602825
00000000: 7617 17be 5420 483f 55ec 02bf b9fc 23bf
00000010: a17c 2040 d87e 3a3f a9b1 87bf e032 41bf
00000020: c1ff 1a3f a2a8 3fbc efd2 d83e aa90 7fbf
00000030: d664 0440 fcd5 f33d 36b5 863f b311 cebf
00000040: 7e17 e73f f7a3 20bf bb1f 023f e002 a8bd
00000050: 35dc 53bf fdf2 25bf 6d43 a7be e69f 67be
00000060: 0b74 fdbe 7fc1 5abf a686 da3e b207 1d3f
00000070: 5239 cc3b f759 083f 1172 81bf 2cce 373f
00000080: 1b72 193f e79e c2be 995c 833f 52d5 b83f
00000090: 0f51 df3e 266e 37bf ad5c 9e3e effa c7bf
000000a0: 4987 023e 42c1 c2be 599b b03e 5edb 72be
000000b0: 38d0 643e b80b 39be 7df6 46bf 0671 853f
000000c0: f2e7 3f3f 0cc5 fbbe fd9f 00be 852d e23f
000000d0: 899e 2abf cfe2 613f 7f44 b63e 1b87 353f
000000e0: c979 7fbf b550 1f3f cbd8 28bf ce49 01be
000000f0: e3df 8dbf 848f a2bd 2521 513f 8d94 adbe
00000100: 4163 303e de4b af3e b599 9dbe ea87 b6be
00000110: ccb9 963f 1ae7 dc3f 7476 e93f a575 88bf
00000120: df3f aabe 0c64 56be f6f8 75bf 86ae 19be
00000130: 51fb 0dbe 18b5 a7be a7c6 fdbe c2d2 d93e
00000140: 527e a63f 3987 b13f 61a5 00bf e50b ac3e

fc3.weight f4 [10, 84]
0.12395533 0.08246003 -0.08632859 0.04545441 -0.35712147 -0.017660957 -0.39364338 0.12619042
-0.098329656 0.08375073 -0.036444478 0.06992155 -0.1862758 -0.017978223 -0.065472685 -0.10693344
-0.050864197 0.076045565 -0.14525469 -0.12992606 0.050648622 -0.13098024 -0.6416781 -0.07115225
-0.11014029 0.05909963 0.08659256 -0.13180755 -0.19615294 -0.17555876 0.06468385 0.018693388
0.056425348 -0.35256046 -0.07619752 -0.3395828 0.0657773 -0.09481669 0.07058718 0.09279519
-0.4459785 0.069484435 0.012459119 -0.30587018 -0.357114 -0.21901764 -0.16253778 -0.007713686
0.001921985 0.045815393 0.041542903 0.047822967 0.084416695 0.04458991 -0.23319593 -0.15424323
0.0574367 0.028523093 0.048225198 -0.08020906 -0.0664318 0.06336889 -0.11340894 0.04884962
-0.068988256 -0.3410001 0.11079189 -0.105103076 -0.12523131 0.048439115 -0.042215124 0.041549236
0.0972915 0.10436934 0.012237919 -0.11366178 -0.12928326 0.015034901 0.11288908 -0.02682034
-0.039920337 0.04473502 -0.011027931 -0.021881007 0.047008067 -0.3203468 0.04623651 0.011701868
-0.17327811 -0.04054127 -0.055935495 -0.0404311 -0.2822166 -0.11988346 -0.09538062 -0.01731198
-0.12627849 -0.30210927 -0.11537135 0.1310935 -0.027685912 -0.07245919 -0.23535784 0.07166198
0.11058747 -0.09132599 -0.19875988 0.064582005 -0.019459669 0.106408775 -0.03436763 0.039950922
0.07045477 -0.2166977 -0.14297594 -0.05543306 -0.019099131 -0.1988449 -0.25794885 0.009730708
-0.08562997 -0.2350251 -0.17785627 0.13738725 -0.052609537 0.028511655 -0.07219749 -0.03163659
0.040673904 0.11054873 0.11132115 0.06413856 0.004593281 -0.14764306 0.13617745 -0.21189846
-0.050747544 -0.07874008 -0.049202263 0.007875458 0.08213425 0.051585652 0.11546315 -0.019292226
0.11578011 0.0020997538 -0.15662874 -0.08129417 -0.03384734 -0.08471807 0.067173846 0.0131666
-0.30233097 -0.16758902 -0.37591174 -0.1400548 -0.21810874 0.08559366 -0.041993763 0.02301815
-0.00598518 0.11333008 -0.06163322 -0.29102597 0.049240906 -0.29459623 0.087515265 -0.30395672
-0.1794539 0.062462766 0.08058722 0.04386628 -0.0763998 0.07479398 0.1830437 0.004467472
-0.14982334 0.030073982 0.056261532 0.050477654 -0.017730374 -0.14561513 0.080065206 0.107072085
-0.15298977 -0.0041589737 -0.05035272 -0.0048284866 0.061234023 -0.5059649 -0.4819117 0.08832404
0.14779083 -0.45397082 -0.067957565 0.07206467 0.076091655 -0.10319118 0.08189822 -0.21252176
-0.13511604 -0.15842257 0.036075417 -0.09996266 -0.028638188 -0.21531452 -0.1249881 0.0345413
-0.029379737 0.0853245 -0.034192953 0.011891294 -0.15289737 -0.18369365 -0.007260371 -0.17070365
-0.23150782 0.0829044 -0.060036443 0.11368796 0.008730087 -0.036471423 0.16612437 0.020763665
0.11984583 -0.15276137 -0.13338614 -0.18891563 -0.18779555 -0.021596115 0.08615146 0.04612021
0.051605593 0.05949493 -0.17267089 -0.074270055 -0.20115219 -0.07484129 0.041246805 0.08398036
0.12123836 -0.01717134 0.1195026 -0.17283043 -0.007371331 -0.29530776 0.0896842 -0.2039961
-0.19730675 -0.04616098 -0.011753446 0.056393966 -0.16843069 0.06962175 -0.19848788 -0.1865406
00000000: 4bdc fd3d cee0 a83d 0bcd b0bd 672e 3a3d
00000010: a0d8 b6be b6ad 90bc a08b c9be 1038 013e
00000020: 0f61 c9bd 8185 ab3d ce46 15bd 0833 8f3d
00000030: 15bf 3ebe 1147 93bc 8b16 86bd ebff dabd
00000040: fa56 50bd c7bd 9b3d a5bd 14be 560b 05be
00000050: ee74 4f3d af1f 06be 0445 24bf 45b8 91bd
00000060: 3b91 e1bd 7412 723d 7157 b13d 8ff8 06be
00000070: 51dc 48be adc5 33be f778 843d e022 993c
00000080: 441e 673d ce82 b4be 720d 9cbd ccdd adbe
00000090: 40b6 863d 412f c2bd 0390 903d 680b be3d
000000a0: 4b57 e4be db4d 8e3d 5521 4c3c 049b 9cbe
000000b0: a5d7 b6be 2946 60be 4e70 26be 17c3 fcbb
000000c0: 1deb fb3a eca8 3b3d e428 2a3d 04e2 433d
000000d0: a9e2 ac3d e9a3 363d eaca 6ebe f0f1 1dbe
000000e0: bf42 6b3d 43a9 e93c c987 453d a644 a4bd
000000f0: 650d 88bd 8cc7 813d f242 e8bd 8a16 483d
00000100: b749 8dbd 9197 aebe dce6 e23d 4840 d7bd
00000110: a33c 00be 1868 463d c4e9 2cbd 882f 2a3d
00000120: c440 c73d 98bf d53d 8d81 483c 82c7 e8bd
00000130: d562 04be f254 763c 6432 e73d 54b6 dbbc
00000140: 8283 23bd 113c 373d 7fae 34bc cc3f b3bc
00000150: 888b 403d 7f04 a4be 7f62 3d3d 31b9 3f3c
00000160: d16f 31be 9a0e 26bd 9e1c 65bd 159b 25bd
00000170: b27e 90be 7685 f5bd ea56 c3bd dad1 8dbc
00000180: 264f 01be 11ae 9abe d047 ecbd 603d 063e
00000190: 91cd e2bc 7c65 94bd a501 71be 84c3 923d
000001a0: af7b e23d 1f09 bbbd b687 4bbe 9243 843d
000001b0: e269 9fbc d8ec d93d 12c5 0cbd 94a3 233d
000001c0: 974a 903d 00e6 5dbe 4968 12be c70d 63bd
000001d0: c875 9cbc ff9d 4bbe df11 84be 8c6d 1f3c
000001e0: c45e afbd 6baa 70be f41f 36be 3eaf 0c3e
000001f0: 197d 57bd 4691 e93c 47dc 93bd 5e95 01bd
00000200: ae99 263d 5f67 e23d 58fc e33d 145b 833d
00000210: 3c83 963b be2f 17be 1a72 0b3e e9fb 58be
00000220: a8dc 4fbd 7b42 a1bd 5088 49bd 1108 013c
00000230: 0036 a83d 7a4b 533d f277 ec3d bb0a 9ebc
00000240: 1f1e ed3d 069c 093b 4963 20be 8f7d a6bd
00000250: 82a3 0abd ab80 adbd 7192 893d b9b8 573c
00000260: 20cb 9abe 759c 2bbe 8177 c0be 876a 0fbe
00000270: e657 5fbe bb4b af3d a701 2cbd 8f90 bc3c
00000280: 541f c4bb 9a19 e83d 1e73 7cbd 5b01 95be
00000290: d5b0 493d 51d5 96be 343b b33d 37a0 9bbe
000002a0: c3c2 37be f5d8 7f3d ea0a a53d 21ad 333d
000002b0: 8077 9cbd 962d 993d cf6f 3b3e df63 923b
000002c0: 4a6b 19be b65d f63c 7e72 663d a8c1 4e3d
000002d0: 4a3f 91bc 221c 15be 3af9 a33d 9c48 db3d
000002e0: 5aa9 1cbe 0048 88bb a73e 4ebd 4838 9ebb
000002f0: 87d0 7a3d ea86 01bf 21bd f6be 3ce3 b43d
00000300: 7b56 173e dd6e e8be 562d 8bbd a496 933d
00000310: f1d5 9b3d e655 d3bd 41ba a73d 4e9f 59be
00000320: dc5b 0abe 8739 22be d1c3 133d 39b9 ccbd
00000330: a29a eabc 697b 5cbe c3f9 ffbd 2e7b 0d3d
00000340: c6ad f0bc 9dbe ae3d e90d 0cbd b4d3 423c
00000350: 2191 1cbe 301a 3cbe 68e8 edbb f0cc 2ebe
00000360: 6310 6dbe c8c9 a93d c6e8 75bd 3cd5 e83d
00000370: a408 0f3c 0f63 15bd 821c 2a3e 9018 aa3c
00000380: bb71 f53d 7a6d 1cbe 6096 08be 1973 41be
00000390: 7a4d 40be 56ea b0bc 2d70 b03d 8ce8 3c3d
000003a0: 6360 533d f5b0 733d a3d0 30be e61a 98bd
000003b0: d7fa 4dbe 6446 99bd 69f2 283d e5fd ab3d
000003c0: d14b f83d e9aa 8cbc c7bd f43d 76fa 30be
000003d0: 358b f1bb 9432 97be 5aac b73d 5be4 50be
000003e0: c80a 4abe 4c13 3dbd 8791 40bc 5cfd 663d
000003f0: 1879 2cbe d995 8e3d 6840 4bbe 8004 3fbe

fc3.bias f4 [10]
-0.13580087 -1.7361048 -0.80288917 0.38497525 1.8057896 -0.051071953 0.5148215 0.020320822
0.6185508 -0.5493262
00000000: 620f 0bbe af38 debf 258a 4dbf 7a1b c53e
00000010: 1d24 e73f d330 51bd 58cb 033f da77 a63c
00000020: 5859 1e3f a4a0 0cbf
